transfer/obelisk/g1_control/resource/policies/policy.pt (torch, 833504 bytes, 8 tensors)

weight f4 [512, 74]
000000 10 a3 3c be 97 f7 66 3e 74 b9 27 be 0f 45 04 3f
       -0.18421578 0.22555386 -0.16379339 0.51667875
000010 8b 58 22 bf 51 ec f8 3d 15 bc fd 3d e2 d5 d7 3d
       -0.63416356 0.12154449 0.123893894 0.10538842
000020 b9 20 58 3e 18 cb 1c 3f 89 ce 72 3e 8f cf 4c be
       0.21106233 0.61247396 0.237116 -0.20001052
000030 dd 34 ae 3d ef 85 3d 3f 77 86 b4 3d 3e c6 c5 3e
       0.085061766 0.7403249 0.0881471 0.3862781
000040 ab ab 8c 3e 8c 24 8c be 7e 49 db be c4 e2 4c 3e
       0.27474722 -0.27371633 -0.42829508 0.20008379
000050 ea a9 eb 3c f0 dc 9b 3d c9 5e bb be 03 bc 5c bc
       0.028767545 0.076105 -0.36595753 -0.01347256
000060 05 11 bb 3e 41 c0 64 be 50 62 46 3e 58 0c d1 3d
       0.36536422 -0.22338964 0.1937344 0.102074325
000070 00 13 34 3d 63 d4 45 3d 9e 7f 78 3e 14 ba 60 be
       0.043963432 0.04829825 0.24267432 -0.21945983
000080 28 45 85 3d 3c d1 6a bd 3b af 07 3f 06 5a 59 3e
       0.06507331 -0.057328448 0.53001755 0.21225747
000090 e7 ef 87 3d 37 83 74 3e df e0 29 be d0 f5 86 bc
       0.066375546 0.2387818 -0.16589688 -0.016474634
0000a0 ee 3a 0e be 85 07 9d bd c9 0e 65 3d 1c bc 1b be
       -0.13889667 -0.0766745 0.055922303 -0.15208477
0000b0 4f fa bc 3d c9 f7 e4 3d 30 19 2c 3e b6 7d 11 bd
       0.0922743 0.11180074 0.16806483 -0.035520278
0000c0 cd 52 41 3e cb 7d 0a bc a6 b1 09 bd 90 8b 30 bd
       0.18879242 -0.008452843 -0.033616684 -0.043101847
0000d0 f8 03 fe 3d 73 ea b2 bd 46 95 c4 3d fb 3f c4 bd
       0.12403101 -0.08736124 0.09598784 -0.09582516
0000e0 f9 ff 24 bc 1f 48 3f bd d1 08 10 bd 15 99 4f bc
       -0.010070794 -0.04669964 -0.035164658 -0.012670775
0000f0 ae bc 45 3c c5 1e 6e bd 2e d7 61 3c 0d 1b 6c bd
       0.0120689105 -0.058134813 0.013784213 -0.057642985
000100 6e 76 41 3c b6 95 ef 3c c2 01 a4 bd 8e e9 15 bb
       0.011808021 0.029246192 -0.08008148 -0.0022874805
000110 be 9b a8 3d 0b a5 d7 bb 52 5f 96 3d 36 ef 8c 3d
       0.082328305 -0.006580954 0.073424 0.06881563
000120 a9 ed 10 be 88 d7 13 bc 94 ac 2c 3e 11 d3 71 be
       -0.1415316 -0.009023555 0.16862708 -0.23615672
000130 18 60 7b bd e6 00 90 bd dc a0 2c bf 3d 48 b2 bd
       -0.06137094 -0.07031421 -0.6743295 -0.087051846
000140 73 9f ff bd ba 10 b8 3d ac c4 05 bd 82 34 9a be
       -0.124815844 0.08987565 -0.032658264 -0.30118185
000150 16 4c 95 3d 91 9b 4f be f6 87 2a be 1c 30 bf be
       0.07289903 -0.20274188 -0.16653427 -0.37341392
000160 09 17 2a be 82 b5 4f bd 63 5a bf 3e a1 44 bd 3e
       -0.1661035 -0.05071021 0.37373647 0.36966422
000170 52 04 74 3e f3 02 2a bc 7d 61 1f 3d 09 08 23 3d
       0.23829773 -0.01037668 0.03891133 0.039802585
000180 1c 8e 94 bb f4 74 6e 3e 83 35 16 3f 9c 45 4c bd
       -0.0045335423 0.23286802 0.586754 -0.049871072
000190 ba c5 8e 3b d9 40 30 bd 34 72 01 be 65 83 1d bf
       0.004357067 -0.043030594 -0.12641221 -0.6152862
0001a0 0d 4d 1c bf 8d 8b 65 bc 70 98 9a 3e 28 40 d9 bd
       -0.6105507 -0.014010322 0.30194426 -0.1060794
0001b0 4b 72 89 3e bf aa 98 3d 9a ac 04 be ad 95 95 bb
       0.2684501 0.07454442 -0.12956467 -0.004564962
0001c0 ba fe c4 3d 5e 18 9f 3e 78 2d bb be 47 14 83 3e
       0.09618898 0.31073278 -0.36558127 0.25601408
0001d0 ae 8a 24 bd 07 cc 9e 3d 11 5a 3f bd 2a b2 17 3e
       -0.040171318 0.07753759 -0.046716753 0.14814058
0001e0 16 4e d9 bd b8 9d 62 3e ef 11 2c bd 03 d1 79 be
       -0.10610597 0.22130477 -0.04200929 -0.24396138
0001f0 3c ae 90 bd e2 32 a2 bd ce 6c d8 3b 23 0d 7a bc
       -0.070644826 -0.079198614 0.0066047674 -0.015261921
000200 80 c2 3c be 0b 41 1a bd de 3b 68 3b 44 bf 35 3d
       -0.18433571 -0.037659686 0.0035436074 0.04437186
000210 79 c4 a1 3c ff 95 a3 3d e5 be 43 3c d2 f3 9c bd
       0.019747006 0.07987594 0.011947368 -0.076636925
000220 fc fd af 3d 52 b3 4f be 52 a6 54 bc 03 bf f3 bc
       0.085933656 -0.20283249 -0.012979107 -0.029754167
000230 4b 0e 8f bd e1 1d 27 3d 7c 0c b4 bc 96 09 c4 3d
       -0.06985148 0.04079998 -0.02197861 0.09572141
000240 68 3f 14 3c 18 61 42 bd 15 1f 0f 3e 20 c5 a2 bd
       0.00904832 -0.047455877 0.139767 -0.07947755
000250 d9 43 d3 be 3a 8c 37 be 10 5b e4 3d 98 17 12 3f
       -0.412627 -0.17924586 0.11150181 0.5706725
000260 c6 68 6f 3f 4c 86 79 bd 22 82 66 3c 24 e3 19 3e
       0.93519247 -0.06091909 0.014069112 0.15028054
000270 26 c9 50 3d ad 8d 3d 3e 2b 08 da 3e 16 ab 9a bd
       0.05097308 0.18511076 0.42584357 -0.07552163
000280 55 98 a6 be b7 1a 5e bf ba 7c c8 3d df 7a 12 be
       -0.32538095 -0.86759514 0.09789415 -0.14304684
000290 3b 77 20 3e 52 73 41 bd ee cc 47 3e 80 f8 0a 3c
       0.15670483 -0.04722912 0.19511768 0.008482099
0002a0 41 87 08 3e e7 89 49 be c9 5c 74 bd df 6d 6a 3e
       0.13332845 -0.19681512 -0.0596588 0.22893475
0002b0 46 a8 ff 3e c8 88 77 3e 32 f0 36 be 3b 3f 35 be
       0.4993307 0.24173272 -0.17865065 -0.17699902
0002c0 9c d9 53 3d e0 85 8f bc 4b b6 25 bd 04 75 da 3c
       0.0517212 -0.017519891 -0.04045705 0.026667126
0002d0 71 89 ab bd 23 f6 5a 3d 48 f2 20 bf c9 5f 55 3e
       -0.08375824 0.05345739 -0.6286969 0.2083732
0002e0 3d 42 88 3d 43 13 04 3e 10 95 a0 3e 70 1c 37 3e
       0.06653259 0.12897973 0.31363726 0.17881942
0002f0 06 db c3 be a9 9e 4e 3e b1 70 a4 3e a4 3d ab bd
       -0.3825304 0.20177712 0.32117227 -0.083613664
000300 cf ac 19 be e2 9c 63 3e 3e c5 7a 3e d6 c6 c1 3d
       -0.15007327 0.22227815 0.24489304 0.09461753
000310 83 d2 11 3e 9f c8 07 be 87 d2 b0 bb 20 d3 d8 3d
       0.1424046 -0.13260125 -0.0053961906 0.10587144
000320 2a 91 d1 bc c3 f9 d9 3c c5 90 9b bd 67 b0 20 bd
       -0.025581915 0.026608353 -0.07595972 -0.03923073
000330 19 9a c7 bc d4 5c bf 3c cf a4 b7 3d f6 e8 41 bc
       -0.024365472 0.023359694 0.089669816 -0.011835327
000340 7a 8c 82 bd 05 a0 70 bd 56 8b 90 bd e1 8e b0 3d
       -0.0637445 -0.058746357 -0.07057826 0.08621002
000350 91 66 b7 3c 4f 85 4a bc dd 7b 76 3b 4d 06 1f 3c
       0.022387775 -0.012360885 0.003761045 0.009706092
000360 1e b5 c0 3c c9 e2 31 bb 72 da 8e 3c db 50 f6 ba
       0.023523863 -0.002714323 0.017438147 -0.0018792407
000370 e2 55 8e 3d bf 46 2a 3d c5 49 be be de 08 aa bd
       0.069499746 0.041571375 -0.37165657 -0.083024725
000380 10 f4 9e be cb 2c a0 be 02 25 7f 3f 8a 26 41 be
       -0.3104558 -0.31284174 0.99665844 -0.18862358
000390 b9 ab 4d bc ee 35 ab bb 76 3a 80 3d ca 42 b7 be
       -0.012553149 -0.005224935 0.062611505 -0.35793144
0003a0 bd c6 5c 3e 81 84 30 3e 07 3c 33 bf fc c4 a7 bc
       0.21560188 0.17238046 -0.7001347 -0.020479672
0003b0 cf 9d 06 3b 5e e4 56 bd 05 a4 97 3e a9 00 49 3e
       0.0020540839 -0.05246388 0.29617324 0.19629158
0003c0 87 72 70 3e 8c ac 0d be d9 0e fe bd b9 f3 0a 3d
       0.23481189 -0.13835353 -0.12405176 0.03392384
0003d0 34 63 d1 3e 3c fe 57 be 35 05 2c bf e0 74 77 3e
       0.40895998 -0.21093076 -0.67195445 0.24165678
0003e0 7c 58 bd 3c 1a d9 64 bd bc 05 87 be 15 1f 9d 3e
       0.023113482 -0.055871107 -0.26371562 0.30687776
0003f0 e5 cc 6f be 7c 5c 20 be 71 83 0e be bf ec ab be
       -0.23418005 -0.1566028 -0.13917328 -0.3357906

bias f4 [512]
000000 11 81 08 3d ae 4b 86 3b 05 14 1b 3d 7e c9 83 bd
       0.033326212 0.004098377 0.03786089 -0.06434916
000010 f1 8b c9 3c 99 20 08 bc c9 d5 d0 bd bb d1 27 be
       0.024602862 -0.008308553 -0.10197026 -0.163886
000020 53 44 a2 3d e0 ec 66 3c 4a 79 13 be f4 a4 92 bd
       0.07923188 0.014094561 -0.14401737 -0.071603686
000030 de 9b fb bd 31 44 55 3d d9 85 64 3d 6b a8 01 bd
       -0.12285589 0.052066986 0.05579171 -0.031654757
000040 26 48 0e 3d 18 58 c3 bd c7 e0 07 3d 2c 15 2b 3e
       0.034736775 -0.09538287 0.03317335 0.16707295
000050 ba ff 70 bd 04 02 ae 3d 06 c8 e2 bd f7 ab 3d 3d
       -0.05883763 0.08496478 -0.11073308 0.046306577
000060 58 b2 40 be 7d 29 0c bc dd 52 10 bd bd 15 b8 3d
       -0.18818033 -0.008554813 -0.035235275 0.08988521
000070 82 5a 83 be 70 52 ff 3b d8 60 9b 3d b9 e0 5b bd
       -0.2565499 0.0077918097 0.07586831 -0.05368111
000080 41 57 d9 3c 1c a3 2b 3d 30 32 3a be a9 c1 8d 3d
       0.026530864 0.0419036 -0.18183208 0.06921703
000090 93 41 ef 3b 01 50 de bd da ec 01 be 90 27 3b bd
       0.007301518 -0.10855103 -0.12688008 -0.045692027
0000a0 33 21 c9 bd c7 6e db bb 67 c0 f7 bd 7d d5 36 3d
       -0.098207854 -0.0066965553 -0.12097245 0.044637192
0000b0 6e 4c 23 be 08 83 69 be 35 b0 9f 3d c7 54 d4 3b
       -0.15947124 -0.2280389 0.07797281 0.006479833
0000c0 31 cc 21 3d ca 5a 13 3d 02 12 19 bd a9 c6 70 3d
       0.039501373 0.035975255 -0.03737069 0.058783207
0000d0 46 22 9a 3d 58 c4 37 be cc 9e 33 be 5d 61 73 39
       0.075260684 -0.17945993 -0.17541045 0.00023210557
0000e0 54 58 50 bd e0 ae b2 3d 1d 34 61 bd ee 02 ec bd
       -0.050865486 0.08724761 -0.05498134 -0.11523996
0000f0 c5 1d 8d be bf 6f 6a bd 90 46 ba bd f2 fe 80 3b
       -0.27561775 -0.057235476 -0.0909549 0.003936642
000100 84 d2 a1 bd 6b 28 8f bd d4 a6 ca bd 76 f2 fc bd
       -0.07901481 -0.06990131 -0.09895101 -0.12350933
000110 66 8b 8c 3d 4d e4 8e 3c c5 27 be bd b6 04 1c bc
       0.06862526 0.017442847 -0.09284929 -0.009522608
000120 3e 9b 1c 3d b3 e3 16 3d ea c6 22 3d 3c e4 7e 3d
       0.038233988 0.036838245 0.03974048 0.06222938
000130 9d 98 1a bd dc e7 b5 bd 95 74 4c 3d ba bc bf bd
       -0.0377432 -0.08882114 0.04991587 -0.093621686
000140 c4 95 02 3e 49 90 09 be 8f de 6d be a4 1c 4b 3c
       0.12752444 -0.13433947 -0.2322943 0.012396965
000150 44 53 0c 3e 83 e1 30 bd aa 42 02 3c c2 03 13 be
       0.13703638 -0.043183815 0.007950464 -0.14356902
000160 49 14 07 bd 9f 31 2c bd 87 37 7e 3d e4 49 9d bd
       -0.03297833 -0.04203951 0.062064674 -0.07680109
000170 da b3 38 bc 94 68 bc 3d b8 ed 81 be bb d5 b7 bd
       -0.011273349 0.09199634 -0.25376678 -0.08976313
000180 0f e2 a2 3d 06 86 83 3d 72 e4 6e be b6 0c 3d 3d
       0.079532735 0.06422047 -0.23329332 0.0461547
000190 b8 cb 84 bd 07 1f 24 be 39 56 59 3a 28 84 24 3d
       -0.06484169 -0.16027461 0.0008290741 0.040165097
0001a0 4b 11 02 3d 11 83 b0 bd b3 05 dd 3d a1 63 63 bd
       0.031754773 -0.08618749 0.10792103 -0.055514935
0001b0 97 0d 27 bd 82 f7 31 3e f7 12 4a 3d b7 30 33 3d
       -0.040784445 0.17379573 0.049334493 0.04374763
0001c0 7e 0d 8b 3d 6f ac 62 3d 18 00 45 be 97 96 1c bd
       0.06789683 0.055340227 -0.19238317 -0.03822955
0001d0 12 60 95 bc 6b dd 4f be 85 7d 2e 3d ef 6b c6 bd
       -0.018234286 -0.20299308 0.042600174 -0.096885554
0001e0 5f d2 54 3d e6 44 e1 bd b6 f7 ac bb 69 e1 05 be
       0.051958438 -0.109994695 -0.005278553 -0.13074268
0001f0 90 4b 44 be 13 e7 35 bd 0d 13 0c 3d d2 ed d7 3d
       -0.1916945 -0.044409823 0.034197856 0.105434075
000200 d5 a3 79 3d 45 61 ca 3d 08 94 4c 3d 05 3c 64 bd
       0.060947258 0.09881834 0.04994586 -0.0557213
000210 77 e0 0c 3e 07 11 cb 3c b7 05 90 3b b3 f4 05 3e
       0.13757502 0.024788393 0.0043952125 0.13081627
000220 cf a9 66 3d 20 9b a7 3d 1b 42 a7 3d 98 a2 d4 3d
       0.056314286 0.081838846 0.081669055 0.10382575
000230 1f c1 2f 3d 50 93 1a be eb 44 37 3d 63 8c 25 bd
       0.042908784 -0.15095258 0.04474346 -0.040417086
000240 f8 b2 1f 3d 0b 26 06 bd ac 06 56 bd e1 26 d8 3d
       0.038989037 -0.032751124 -0.052252457 0.105542906
000250 dd 41 a1 3d c6 84 8e bd d9 22 23 be c1 73 59 bd
       0.078738905 -0.06958918 -0.15931262 -0.053088907
000260 b7 00 42 3d a2 2d c4 bd fc 66 fd bd 8e be c0 bd
       0.047363963 -0.09579016 -0.12373158 -0.094113454
000270 9c e2 57 bb 3d 40 a6 be 37 d2 34 3d 00 87 97 be
       -0.0032941466 -0.32470885 0.04414579 -0.29595184
000280 59 49 3e be 2f ce b3 bd 75 fd e7 bc de b3 5c bd
       -0.18582667 -0.08779561 -0.0283191 -0.053882472
000290 cb 71 dc 3d 9b b5 8c 3d 5a 7b 03 bd f3 eb 1b bd
       0.10763892 0.06870576 -0.03210006 -0.038066816
0002a0 a8 47 09 bd 3f a8 0e 3d ec f2 f9 bc 9a 3f 29 bd
       -0.033515602 0.03482842 -0.030511342 -0.04132042
0002b0 12 ec 31 3d da 12 8b bd 80 9b 41 3e 66 f0 83 be
       0.043438025 -0.06790705 0.18906975 -0.25769347
0002c0 19 d9 bf bd 21 4b 2a be 1a 6c cb bd 44 7f 8a 3d
       -0.0936758 -0.16630222 -0.09932728 0.06762555
0002d0 05 52 d7 3c 8b 96 08 be f7 fc 16 3e 40 18 35 3d
       0.026284227 -0.13338678 0.14744936 0.04421258
0002e0 57 52 9f bd 34 5a 9a 3d da 1d 50 be 56 2a af bd
       -0.07779377 0.07536736 -0.20323887 -0.08552997
0002f0 2a fa bf 3d ee 86 4d be 9f 63 af bc 13 48 2d 3d
       0.09373887 -0.20071003 -0.021409808 0.042305063
000300 81 8c 8a bd 37 cc 7a bd 63 09 97 bd e2 0a 86 3c
       -0.0676508 -0.06122991 -0.07374837 0.016362611
000310 90 74 96 be d5 cb 0c 3e 04 52 21 bc 33 8f e3 bd
       -0.29385805 0.13749631 -0.009846214 -0.111112975
000320 1d 1a 51 be fa 33 9d bd cd a3 eb bd 28 1b c7 3d
       -0.20420118 -0.07675929 -0.11505852 0.097219765
000330 c6 5f 46 be e4 52 b9 bd 03 44 df bd 14 9d 25 be
       -0.19372472 -0.09049013 -0.10901644 -0.16173202
000340 10 b4 cb bd 91 ce eb bd 53 c9 83 bd c3 a8 14 bc
       -0.099464536 -0.11514009 -0.06434884 -0.009073439
000350 b3 ba 8f 3d 0a 0c d8 bd 3e 8c a6 bd c8 51 6a be
       0.07018032 -0.10549171 -0.08132218 -0.2288276
000360 a9 ae 36 bd 88 34 0a 3e cb 10 91 3d 3a 3d ec bd
       -0.044600163 0.13496602 0.07083281 -0.115351155
000370 f9 05 da bd a1 10 e4 3d e4 67 4f 3d 54 b4 98 3d
       -0.106456704 0.11135984 0.050636187 0.0745627
000380 04 84 f1 ba c2 9f 19 be fa 04 bd bd 21 0b d6 3c
       -0.0018426185 -0.15002349 -0.09229465 0.026128354
000390 a1 ac 2e be 80 3d c4 3d df e5 e0 3c 36 80 84 be
       -0.1705804 0.09582043 0.027453361 -0.25879067
0003a0 3a 56 87 3d 0c 2f 00 bd 66 98 2e 3e fc 16 49 bd
       0.06608243 -0.031294867 0.17050323 -0.049094185
0003b0 f3 9e 4a be 17 8a 66 bd 95 6a 45 be 90 1b 03 bd
       -0.19787197 -0.056284036 -0.19278939 -0.032008708
0003c0 5e f5 dd bd a2 a3 7f be 28 80 b9 bc b1 8a 13 3c
       -0.10837816 -0.24964765 -0.022644117 0.009005235
0003d0 8f e4 34 3d f5 11 0f 3d ec c4 76 bd 0f 4c 21 3d
       0.044163283 0.034929235 -0.060246393 0.039379176
0003e0 8f 8a a5 bd d4 a1 b4 bc dc db 64 be c7 ca 2b be
       -0.080830686 -0.022049822 -0.22349495 -0.16776572
0003f0 36 8c 3e bd 63 95 5e bd b6 14 0d be 27 39 4f bd
       -0.046520434 -0.054341685 -0.13777432 -0.050591614

weight f4 [256, 512]
000000 ee 07 cd bb a0 30 3c bd 35 32 61 3c d4 8e 12 3d
       -0.006257049 -0.04594481 0.01374488 0.035780743
000010 0b 25 14 bd d6 7d dd 3d 9f 1a 26 bc dc b9 db 3d
       -0.03616814 0.10815017 -0.010138183 0.10728809
000020 8a 9c a2 bd 57 97 5e 3d 89 0c 1d 3d 56 88 8e 3d
       -0.07940014 0.054343548 0.038342033 0.06959598
000030 e9 01 ec bd 8c 83 09 be 8f 96 e1 3d 9b 2b fd bd
       -0.11523802 -0.13429087 0.11015045 -0.12361833
000040 22 f3 cd bd 1c 82 fa bd 08 b3 20 be 41 af 58 be
       -0.100561395 -0.12231848 -0.15693295 -0.21160604
000050 fd d8 b3 3c eb 69 9a be ed 15 3f 3c ad bd f2 bd
       0.021954054 -0.30158934 0.011662942 -0.11852584
000060 81 60 6b 3e cb 14 b5 3d 5c 76 4b be c7 0b 39 3e
       0.22986032 0.088418566 -0.1986937 0.18070899
000070 97 95 59 3e d5 9a 39 be 6d 37 df 3d bf 4c 6b bd
       0.2124847 -0.1812547 0.108992435 -0.057446238
000080 a0 86 f6 3d 5a 26 68 bd 3f 30 42 3e b3 08 f7 bd
       0.120373964 -0.0566772 0.18963717 -0.12062206
000090 98 48 16 3e 82 96 27 be 67 6f d5 3c a8 fe 5d be
       0.1467613 -0.16366008 0.026054097 -0.21679175
0000a0 7a e8 8c 3d ae 73 32 be 0a 57 f7 bd 66 c7 d2 3c
       0.06880279 -0.17426941 -0.12077148 0.025729846
0000b0 d8 3d 9b 3d 76 b9 93 3e 1c 6f c2 bd d7 30 05 bc
       0.07580155 0.28852433 -0.09493849 -0.00812932
0000c0 04 38 45 be 14 11 b8 bd 14 10 11 bd 89 39 bc 3c
       -0.1925965 -0.089876324 -0.035415724 0.022976654
0000d0 8e 8d c5 3d 0b 48 55 ba 36 e1 15 bc 4b 64 4f 3e
       0.0964614 -0.00081360404 -0.009147933 0.20253102
0000e0 c8 78 21 be a5 60 0c 3d 6b ba 00 3e df b0 0c 3e
       -0.1576873 0.034271855 0.12571113 0.13739346
0000f0 15 4a 4e 3e a5 10 3e 3e 72 e6 93 3d e5 cb 1e be
       0.20145448 0.18561037 0.07221688 -0.15507467
000100 b1 db ff bd 6d 14 ae 3c 42 3c 08 bd b5 e0 65 3e
       -0.12493075 0.021249974 -0.03326059 0.22449
000110 b4 2f 29 be dc 87 39 3c 63 e6 ab 3c f5 78 23 be
       -0.16522104 0.011323895 0.02098388 -0.1596411
000120 82 6e 45 3a 09 18 42 3d aa 1e ba 3c 88 ec 8c 3d
       0.00075314206 0.047386203 0.0227197 0.06881052
000130 e4 f7 c5 bd ae cb 29 3e 62 41 13 3d 4e b7 a4 3d
       -0.09666422 0.16581604 0.035951026 0.08042775
000140 ae 4b a3 3b 04 c3 5c be 3c bd a9 3e a4 57 87 3d
       0.004983387 -0.21558768 0.33152187 0.06608513
000150 ec 95 bb 3b 6f 45 52 3e 56 28 08 be d1 8d f8 3d
       0.005724659 0.205343 -0.13296637 0.12136424
000160 1d e5 59 3e 76 d4 46 3d 22 75 01 3e 3b 07 75 be
       0.21278806 0.048542462 0.12642339 -0.2392854
000170 d6 14 02 3d db 98 d4 3b a3 00 53 3e 6e dd a2 3d
       0.031758152 0.0064879484 0.20605712 0.079523906
000180 3a 0a 7d be df e7 45 bd ba 01 22 bd 22 21 af 3c
       -0.24710932 -0.048316833 -0.039552428 0.021378104
000190 73 2c 0f 3b 54 2d 9c 3c 53 42 b0 3d ad 02 94 3d
       0.0021846562 0.019064583 0.086064 0.07227073
0001a0 6b b9 0e bd 9a 36 3b 3e dc 38 2b be 18 38 4e 3e
       -0.034844797 0.18282548 -0.16720909 0.20138586
0001b0 bd c8 71 3d 72 3c 3b 3e 99 86 88 be ee ee 01 be
       0.05902933 0.18284777 -0.2666519 -0.126888
0001c0 a1 f9 1d be c0 9f a6 bd 5d 83 6b 3c c3 55 f7 3c
       -0.15427257 -0.08135939 0.014374581 0.030192262
0001d0 bc 64 41 3e 62 41 2a 3e 85 2d 79 bd 6b b1 28 3d
       0.18886083 0.16626504 -0.060834426 0.041184824
0001e0 2a 3b 00 be 7f b9 30 3c 6b 41 84 bc d0 61 a2 3c
       -0.1252257 0.010786413 -0.016144475 0.019822031
0001f0 43 ea b0 3d 0d 7f d3 3a c0 76 b7 bc 4e be 86 bd
       0.08638432 0.0016135887 -0.022395492 -0.065792665
000200 b0 7e bc 3d cb 41 83 3d 69 ff 1a be 15 06 ad 3d
       0.09203851 0.064090334 -0.15136494 0.08448426
000210 3a cd 16 bb df 9c be bd 42 84 41 3d 1a b9 7c 3e
       -0.0023010508 -0.093072645 0.04724527 0.24679986
000220 38 14 24 bd 5b ae 06 3d 4c 54 27 3d 54 2e 33 3e
       -0.040058345 0.032881122 0.040851876 0.17498142
000230 21 4d 67 3d f6 2f b6 bd 1e 16 04 be 41 b2 88 3d
       0.05647004 -0.088958666 -0.12899062 0.06674624
000240 35 40 f4 3c 5b 64 ff bd 84 54 b4 3c d6 d5 9a bd
       0.029815773 -0.12470313 0.022012956 -0.07560317
000250 6b da d7 bd c1 2c b1 bd de f6 7d 3c 7a d3 17 3d
       -0.10539707 -0.08651114 0.015500752 0.037066914
000260 d9 51 e4 3d cc b3 d4 bd 4e 4b 17 bd c1 11 25 bd
       0.11148424 -0.10385856 -0.03693705 -0.040300135
000270 d1 b8 d5 bb 18 fd 03 3e 30 bb 10 3e c1 28 fa 3d
       -0.006522276 0.12889516 0.14133906 0.122148044
000280 f8 c1 e6 3d 7c 04 47 bd 3b 99 de bd e2 12 2b 3d
       0.11267465 -0.04858826 -0.1086907 0.041766055
000290 5d f9 c5 3d 99 53 33 be 26 61 aa bc be b3 b6 bc
       0.09666703 -0.17512359 -0.020798277 -0.022302505
0002a0 9a d8 bd 3d ec 40 f5 bd f0 bb 59 3d a1 a6 82 ba
       0.09269829 -0.119752735 0.053157747 -0.0009967872
0002b0 28 da 96 bb 18 a7 4a 3d f9 81 b0 bd 68 71 79 bd
       -0.004603643 0.04947576 -0.0861854 -0.06089917
0002c0 97 16 09 bd b3 e4 d9 3e 9c f4 eb 3d f6 44 54 3b
       -0.03346881 0.42557296 0.11521265 0.0032389737
0002d0 87 65 04 3e f8 38 0f 3e 41 f9 58 be 1f bd 51 bd
       0.12929355 0.13986576 -0.21188833 -0.05120575
0002e0 ed 19 fe 3d 4f 85 cc 3c b7 9b dd bc 15 58 af bd
       0.12407289 0.02496591 -0.02705179 -0.08561722
0002f0 bd b5 9c bc 96 af e3 3c b4 3f 5b 3d 20 48 d7 bd
       -0.019129628 0.027793687 0.05352755 -0.105118036
000300 da 47 7b bd b8 af 09 3d 9f c2 b0 3d 79 8f 63 3d
       -0.06134782 0.033614844 0.08630871 0.055556748
000310 2b f2 2a 3e 6d 9b 6b be b3 89 08 be 43 3c be bc
       0.16693942 -0.23008509 -0.13333778 -0.023222094
000320 80 dc c0 bc 28 df 96 3c 7a 40 24 bd 2f 26 4f 3c
       -0.023542643 0.018416956 -0.040100552 0.012643381
000330 c0 69 7b 3d 6a 05 8c 3d a8 7f a6 bd cd 49 9b 3d
       0.061380148 0.0683697 -0.08129817 0.07582436
000340 0c 25 d0 bc db 3a 12 3d 96 ad 93 bd 5f 85 02 3e
       -0.02540829 0.03570066 -0.07210843 0.1274619
000350 66 3e c7 3d 4e ca 6e bc b3 25 ac bd 80 59 b4 bd
       0.097286984 -0.0145746 -0.08405628 -0.08806133
000360 31 02 dc bd e1 8b 5f be f1 90 1f be 0d f8 28 be
       -0.107426055 -0.21830703 -0.15582635 -0.16500874
000370 18 8a a5 3d 81 6f 17 be 4b a1 2c 3c 74 f5 a2 bc
       0.0808298 -0.14788629 0.010536502 -0.019892432
000380 73 bb 44 3d ca 72 15 3c 64 1b 61 3d 3d 1e 00 be
       0.048030328 0.009121606 0.054957762 -0.12511535
000390 7c 21 b1 3d 2f 68 27 bd 78 40 63 bd 12 80 c2 3d
       0.08648965 -0.04087084 -0.055481404 0.09497084
0003a0 da 6a ad 3c da 82 32 bb d1 1a 10 be c9 ab f0 3c
       0.021169115 -0.0027238638 -0.1407273 0.029378789
0003b0 f8 73 69 3c 57 54 b6 bd 50 98 f8 3d 5e 96 18 3d
       0.0142488405 -0.08902805 0.12138426 0.037252776
0003c0 85 bd 3a 3e a5 af de bd 1b 40 d2 bd 14 e4 ac bc
       0.18236358 -0.10873345 -0.102661334 -0.02110485
0003d0 77 10 70 3d 21 3d 8e 3e 82 4d c3 3c 29 a3 fc 3d
       0.058609452 0.27781013 0.02384067 0.12335808
0003e0 38 53 ea 3c 28 22 1b be 6d 4c 15 3e 87 00 94 3d
       0.028604135 -0.15149748 0.14579935 0.07226663
0003f0 30 dd 11 3d 89 96 04 be a7 2b 21 3e 6b bc 8c bd
       0.03561133 -0.1294805 0.15739308 -0.068718754

bias f4 [256]
000000 88 df 59 be 68 ac da bd 19 df 6a bc 5c 80 bf bb
       -0.21276677 -0.10677415 -0.014335417 -0.005844159
000010 08 42 f5 bd c2 d6 6f bd 05 52 39 be b7 84 b6 be
       -0.11975485 -0.05855442 -0.18097694 -0.35648128
000020 18 35 10 be ad 8e 1f be c8 c3 df bd 3c 81 a4 bd
       -0.14082754 -0.1558177 -0.10926014 -0.08032462
000030 94 db 18 bd 7f 7f 32 be b2 18 20 be f4 05 7a be
       -0.03731878 -0.17431448 -0.1563442 -0.24416333
000040 7e c6 d1 3c 44 5e 1f be 1b ac 9a bd 78 f4 bc bd
       0.025607344 -0.15563303 -0.07552358 -0.09226316
000050 da e1 fa bd 01 6c 4d be 29 62 b6 bd bb 9d a9 bc
       -0.12250109 -0.20060731 -0.08905441 -0.020705095
000060 4d f4 de bd ad 02 61 be 81 f0 0e be c6 08 4d 3c
       -0.108864404 -0.21973677 -0.13958932 0.012514299
000070 9c c4 09 be 1d 9b 8f bd 3e c5 12 be 43 3e 0e be
       -0.13453907 -0.070120074 -0.14333054 -0.13890938
000080 77 f2 d0 bd 8c cb 80 bc 92 ad 8b 3d d5 b0 1b bd
       -0.102024965 -0.015722059 0.06820215 -0.038010437
000090 39 24 48 3d ee 92 db bd 4b 51 8c bd e1 74 0f be
       0.04886267 -0.10721384 -0.06851443 -0.1400943
0000a0 bb 6d 33 be 95 df d0 bd 62 1d c6 be 01 5f e0 bd
       -0.17522328 -0.10198895 -0.38694292 -0.109556206
0000b0 70 86 ad bd c4 0f 48 be 79 73 6b be ca c5 8a be
       -0.084729075 -0.19537264 -0.22993268 -0.27104026
0000c0 59 88 95 bd 62 3d 51 be ce 0c 96 bc a9 db 24 be
       -0.07301397 -0.20433572 -0.018316653 -0.16099419
0000d0 ed 4c 1a bd 44 f1 26 bd 1f c5 18 be b2 5e b6 bd
       -0.03767102 -0.040757433 -0.14918946 -0.089047804
0000e0 e5 80 92 be 59 79 41 be 92 f2 cb be 82 be 75 bd
       -0.28613964 -0.18893947 -0.39833504 -0.059996136
0000f0 d9 9a 2d be 67 4c 09 bd 23 cc 7c 3d a5 87 31 bb
       -0.16953601 -0.03352013 0.061718117 -0.0027088907
000100 9e 31 36 be 0b a0 a9 bd 2b 5c b5 ba c3 c3 a2 3d
       -0.17792365 -0.08282479 -0.0013836672 0.07947495
000110 32 b3 2d be fa c2 dc bc 33 b2 15 be eb e7 23 3e
       -0.16962889 -0.02694844 -0.14618759 0.16006438
000120 ef d8 39 bd 21 96 bb bd 95 e9 d6 bc 5b cd 92 bd
       -0.0453729 -0.09159494 -0.026234427 -0.07168075
000130 9e 71 67 3c 24 5a 49 be 03 71 ff be fd 92 58 be
       0.01412621 -0.19663292 -0.4989091 -0.21149822
000140 82 5d 74 be 4c cd a5 bc 89 bf 6b bc 6a 1f 16 be
       -0.23863795 -0.020239495 -0.014388927 -0.14660421
000150 a5 64 0e be 20 5d 9c bd 2f f9 22 be 0a 77 0a be
       -0.1390558 -0.0763495 -0.15915368 -0.13521972
000160 0a ee a2 bd 86 bf a6 bd 77 3e af bd 93 6b 87 bc
       -0.079555586 -0.08141999 -0.08556836 -0.016530788
000170 cd c4 4a be e5 af b4 bd d4 38 07 be b7 ca ba bc
       -0.19801636 -0.08822612 -0.13205272 -0.02280174
000180 2a d0 00 be 13 08 e8 bd 92 14 6c 3c f0 2e e4 bd
       -0.12579408 -0.11329665 0.014409201 -0.11141765
000190 fd d5 36 bd 92 be 1f be 25 9a f9 bd 61 2f 33 be
       -0.04463767 -0.1560004 -0.12187604 -0.17498542
0001a0 00 e8 4d bd 0e 35 53 be 90 9b 2d 3b 22 5f 25 3d
       -0.05027008 -0.20625708 0.0026490428 0.04037393
0001b0 01 52 18 bd cf ca ae bc 50 85 e4 3d 8f e5 dc 3d
       -0.03718758 -0.021336941 0.1115824 0.10785972
0001c0 5c 4a eb bd d7 05 dc bd 86 15 2c be b0 3a 83 bd
       -0.11488792 -0.10743301 -0.16805086 -0.06407678
0001d0 1c 25 ea bd 96 32 35 be 55 ec de bd 19 7b 4f be
       -0.11432859 -0.17695078 -0.108849205 -0.20261802
0001e0 a0 12 5d be 90 dd 80 be 53 c5 a2 bd 6c 17 f8 bd
       -0.21589136 -0.2516904 -0.07947793 -0.12113842
0001f0 a9 8f 2a bd dd 92 bf 3d 33 a4 78 be 92 07 e1 bd
       -0.04164091 0.09354184 -0.24281387 -0.10987772
000200 64 39 3e bd a2 37 22 be 86 d6 b6 be 9c 92 85 be
       -0.04644145 -0.15841535 -0.35710543 -0.26088417
000210 7c 3a 7f bd 16 26 8c be 4c d3 e8 bd 74 6f 39 be
       -0.062311634 -0.27372807 -0.11368427 -0.18108922
000220 6c b3 51 be de 56 2b be 3a d6 c8 be 00 8c 86 3d
       -0.204786 -0.16732356 -0.39225942 0.06569672
000230 83 d3 4d 3b 54 5e 9c bd 6e d2 c5 bd cd 34 30 be
       0.0031406588 -0.07635179 -0.09659277 -0.17207642
000240 1d 08 1c be e2 df a1 bd 1e 6e 63 be cf c6 36 be
       -0.1523747 -0.079040304 -0.22209975 -0.17849277
000250 35 bc 14 be e7 b8 bf bd c2 b7 f0 bd 9e 51 92 bd
       -0.1452492 -0.09361439 -0.11753799 -0.071444735
000260 a1 55 75 be b0 5c 82 bd 2c 00 8e bc 3a 31 38 bd
       -0.23958446 -0.06365335 -0.017334066 -0.04496882
000270 e1 28 0f be ca 9b ed bd 3c 99 97 bc 5b 38 3b be
       -0.13980438 -0.1160198 -0.018505685 -0.18283217
000280 6f b5 25 be 13 38 8b be b5 5f d8 3c 0b 32 30 bd
       -0.16182493 -0.2719122 0.026412824 -0.043016475
000290 0c 72 fa 3d da e8 4f bc 40 ce 1a 3d 17 f4 92 bd
       0.12228784 -0.0126897935 0.03779435 -0.07175463
0002a0 66 2e 11 be 50 20 0e bd aa c6 be 3d 6a 0f 49 bd
       -0.14177856 -0.034698784 0.09315236 -0.049086966
0002b0 4d 5f 11 be dc cd 9a bd 74 e3 e7 bd 56 b3 80 bd
       -0.1419651 -0.07558796 -0.1132268 -0.062842056
0002c0 5b 22 02 be 57 06 99 be 22 b3 d4 bd ea ab 8d be
       -0.12708418 -0.2988765 -0.10385729 -0.27670223
0002d0 ea c1 51 be c6 06 c0 3c b5 ca fd bd e2 ca 1d be
       -0.20484129 0.02344073 -0.12392179 -0.15409425
0002e0 ab 95 20 bd f9 c6 26 bd ef 59 12 be 0e af 8d be
       -0.039205234 -0.0407171 -0.1429212 -0.2767262
0002f0 d4 25 51 bd 3d 94 82 bd 09 e4 6d bd 94 ad 9a bd
       -0.051061466 -0.063759305 -0.0580788 -0.07552639
000300 88 1d d4 bd 0d c6 4f bd a5 11 d9 bd 97 8c 13 be
       -0.10357195 -0.050725985 -0.105990686 -0.144091
000310 75 7d 9b bd 0b 0d 06 be 2d f5 20 be 36 ff 38 bd
       -0.075922884 -0.13090913 -0.15718527 -0.045165263
000320 9d f1 61 be 47 89 96 bd 9f d3 67 bd cd 25 44 bd
       -0.22064824 -0.07350402 -0.056598302 -0.047887612
000330 3c 4c 27 be f4 d9 50 be a9 ec 8e be 0f 4e c4 bd
       -0.16337675 -0.20395643 -0.27914932 -0.09585201
000340 a8 13 fe bd 52 f2 5c be 56 d2 23 be 0a eb 92 bd
       -0.12406093 -0.21576813 -0.15998206 -0.071737364
000350 1a 99 0d be 70 e0 75 be 4a de 57 bd de 3e 17 be
       -0.13827935 -0.24011397 -0.052702226 -0.14770076
000360 61 11 0f be fd be 48 be b4 44 cd bd 65 09 b6 bd
       -0.13971473 -0.19604106 -0.1002287 -0.088885106
000370 27 df 2c be f0 b6 83 be 26 89 3d bd 2e 7d d9 bd
       -0.16882001 -0.25725508 -0.046273373 -0.10619579
000380 04 e2 03 be 49 47 f4 bd 41 59 fd bd 3e ba f6 bc
       -0.12879187 -0.11927659 -0.123705395 -0.030118104
000390 35 ba 9a be 46 ff a2 bd 79 3c 97 bc 86 c5 80 bd
       -0.3022019 -0.07958846 -0.018461453 -0.062876746
0003a0 b9 83 4f be 6b 5c 1e bd 9d 53 3d be 53 ad ec bd
       -0.20265092 -0.038662355 -0.18488927 -0.115564965
0003b0 7e 3f 94 be 87 90 db bd 0e 8f 1a be 6d 5b 81 bd
       -0.2895469 -0.10720926 -0.15093634 -0.06316266
0003c0 46 01 e8 bd 53 ac a5 be d0 76 3f bd 07 c0 02 be
       -0.11328368 -0.32358035 -0.046744168 -0.12768565
0003d0 42 25 00 be df 4e ac 3c b5 6a a1 bb ac e6 24 be
       -0.12514213 0.021033702 -0.0049260505 -0.1610362
0003e0 dc 6a bf bd 0f f8 8c bd a5 b3 23 be 33 d2 27 be
       -0.09346554 -0.06883251 -0.15986498 -0.16388778
0003f0 ce 19 e1 bc 81 a8 88 be 3c ed f1 3b c0 5e 1e bd
       -0.027478125 -0.26691058 0.007383017 -0.03866458

weight f4 [128, 256]
000000 b0 e4 09 3e f6 0c 54 3d 76 f4 91 3c d9 51 0e bd
       0.13466144 0.051770173 0.017816763 -0.034746025
000010 3e b6 c7 bd ff 87 3c 3e 4f 3a cd bd f8 64 81 3d
       -0.09751557 0.18411253 -0.10020887 0.063180864
000020 a3 7e 95 bc c2 94 0e 3d b2 e8 3a be 6c 0c 16 bb
       -0.018248862 0.034809835 -0.18252829 -0.0022895588
000030 d8 6d df bd bb a1 66 bd 25 a9 3a be bb d4 85 bd
       -0.10909623 -0.056306582 -0.18228586 -0.06534716
000040 3c 48 28 bb e6 7a 0c 3d 9c f3 01 3d af b5 97 3d
       -0.002567782 0.034296893 0.031726465 0.074077
000050 da a4 19 3e 15 97 bf 3d 29 30 44 be 91 17 b2 bc
       0.15004292 0.093549885 -0.19158997 -0.021739753
000060 19 e8 d0 3d 27 12 14 be 33 9e 80 3d da 88 9c bc
       0.10200519 -0.1446005 0.06280174 -0.019108225
000070 a1 1c 85 3d de df c3 3d f6 70 f2 bd 32 e8 ee 3d
       0.06499601 0.09564184 -0.11837952 0.116653815
000080 e5 7f 84 3c 72 5f 29 3d 56 80 8e bd ff 39 08 3d
       0.016174266 0.04135079 -0.06958072 0.033258434
000090 79 ab 2b bc 9a d3 89 bd dc a1 f9 bc f0 6d 5f 3c
       -0.010477894 -0.06729813 -0.030472688 0.013637051
0000a0 67 f6 9c bd 22 b5 d2 3d c6 ed 4d 3d 2d 6a d1 3d
       -0.07664185 0.102884546 0.050275587 0.102253295
0000b0 52 11 fd 3c fc cc 22 bd ea 21 5c bc 92 de 94 3d
       0.030892048 -0.03974627 -0.01343582 0.072690144
0000c0 21 27 90 3d 99 38 0e bc 41 e3 e9 bd d5 29 38 3c
       0.07038713 -0.008680486 -0.11420298 0.011240442
0000d0 fb 21 86 bd ae 46 95 bc 76 77 b5 bd af 22 bd 3c
       -0.0654945 -0.01822218 -0.08860676 0.023087827
0000e0 84 b3 d9 3d b0 31 7d 3d f2 b4 ec bd 4f 4f 38 3d
       0.10629943 0.061814964 -0.1155795 0.04499751
0000f0 f6 d0 6d 3e 42 d4 88 3c b2 8f 4f be bd de 3b 3d
       0.23224244 0.016702775 -0.20269659 0.045866717
000100 f3 91 ee ba c2 4e d7 3c dd c3 69 3d 94 d0 1b 3d
       -0.0018201455 0.026282672 0.057071555 0.038040712
000110 bb 35 d9 bd c6 d4 05 bd a7 68 19 3e a8 eb 7a bd
       -0.106059514 -0.03267362 0.14981328 -0.061259896
000120 20 d8 53 bd 45 0a ab 3d c5 c4 96 bc 9d 8d 83 3d
       -0.051719785 0.08351568 -0.018404374 0.06423495
000130 1e e9 87 bd 93 84 ef 3b 9d 1b 96 3d 45 58 c3 bd
       -0.066362604 0.0073095053 0.073294856 -0.095383205
000140 f4 37 79 bd 08 d2 a6 3c c7 bf 63 3d 3f ad 2e 3e
       -0.060844377 0.020363823 0.055602815 0.17058276
000150 b7 27 15 3e d0 97 b3 3d 7f 65 68 bd a6 36 7d bd
       0.14565931 0.0876919 -0.05673742 -0.061819695
000160 d3 2a 1f be 55 99 1a bd 7b fd e2 bb a4 81 90 3d
       -0.1554368 -0.037743885 -0.00692719 0.07055977
000170 3e ed 3f be aa 8a be bd 67 c7 51 3b e6 ea a0 3b
       -0.18742844 -0.09303792 0.0032009722 0.0049108146
000180 92 c2 fb 3d de 33 4e bd c2 e9 5d bd 02 e2 97 3d
       0.12292971 -0.050342433 -0.054178007 0.074161544
000190 b5 f7 9f 3c 65 d3 55 bd 51 88 a0 3d 82 93 85 bd
       0.019527296 -0.052203555 0.078385 -0.065222755
0001a0 d7 5e ca 3c 5d bd 95 bd 72 7c bd 3d 46 39 e1 bd
       0.024703426 -0.07311509 0.09252252 -0.10997252
0001b0 5a c4 eb 3c 04 9f f2 3c e7 91 6a bb 09 6a a4 3c
       0.028780151 0.02961684 -0.003579253 0.020070093
0001c0 dc 54 e1 bc 36 4c 47 3c 09 47 79 bd ea ec 45 bd
       -0.027506284 0.012164166 -0.06085876 -0.048321642
0001d0 97 39 d9 bd 68 f4 dd 3c 72 41 d3 bd 04 9e 10 bd
       -0.106066875 0.027094081 -0.10315217 -0.035306945
0001e0 0f b0 b0 bd f9 be 9a 3d 8b 57 9f bd 47 92 87 bd
       -0.086273305 0.075559564 -0.07780369 -0.06619697
0001f0 f5 3c ce 3d 48 5c 54 3c b6 e0 ff 3d 10 f7 09 be
       0.100702204 0.012961455 0.12494032 -0.13473153
000200 d3 24 41 3d ad 7f 2d 3d 8a 11 04 3e b6 57 11 3e
       0.04715426 0.04235809 0.12897316 0.14193615
000210 68 8f 61 be d2 cc d8 3d 4d ff 90 bd 64 63 ff bd
       -0.22027361 0.105859414 -0.07079945 -0.12470129
000220 f8 45 46 bd 59 61 8e bc 2d a5 fa 3d b7 dd 3a 3d
       -0.04840657 -0.017380403 0.12238536 0.0456216
000230 46 98 fc 3d f2 2d 77 bd 4e 10 a9 bd 08 71 9e bd
       0.12333731 -0.06034655 -0.08255063 -0.07736403
000240 0c e9 04 3e 06 6e 2e 3d 63 0b bd 3d 7b 0a 30 3d
       0.12979525 0.042585395 0.092306875 0.042978745
000250 96 27 32 3d 2a 44 9d 3c 77 2c 9c bd a0 a3 cd 3c
       0.043494783 0.019197542 -0.076256685 0.025102437
000260 69 1b c2 3d 7f 0d b7 bc 25 d2 25 bd b1 e0 9a bc
       0.09477884 -0.022345303 -0.040483613 -0.01890597
000270 00 2b ab 3d ef dc 0e be 6b 83 1b 3d da e1 d9 3d
       0.08357811 -0.13951467 0.037967127 0.10638781
000280 66 57 4a 3c d7 0c ee 3c 22 85 14 bd 76 fb 8c bc
       0.012349939 0.029058857 -0.036259778 -0.01720975
000290 3b 35 00 3e b4 03 f7 3c fc a8 5e 3c 18 d1 f7 3b
       0.12520306 0.030153133 0.013590094 0.0075627677
0002a0 b2 10 bb bc b5 47 d8 3d 14 8a 4e bc 8f 3a f9 bd
       -0.02283511 0.10560552 -0.012606163 -0.12169372
0002b0 64 1e 5a 3c 7e 70 60 3d 9c e7 11 be 77 62 0a 3d
       0.01331291 0.05479478 -0.14248508 0.03378531
0002c0 af 92 01 3e 71 f6 34 3e 60 1c 75 3d 2a 31 26 3d
       0.12653612 0.17672135 0.059841514 0.04057423
0002d0 76 c4 09 bb 18 d6 4a be 67 fb a9 bc a9 4d df 3d
       -0.002102164 -0.19808233 -0.02074976 0.109034844
0002e0 0a 34 90 3c 8c 06 81 3c 43 c8 77 3d ed c9 17 3e
       0.01760294 0.015750192 0.06049372 0.14823122
0002f0 ed 1f cd 3c 80 16 1c 3d 7f b3 16 bc ad d7 a1 3d
       0.025039637 0.038107395 -0.009198069 0.07902465
000300 71 de 78 3d e1 09 96 3d b2 5c f1 3b ca a4 06 3d
       0.06075901 0.07326103 0.0073657865 0.032872
000310 ff fc 1f bd 07 45 19 be 20 8e a8 3d 75 58 13 be
       -0.039059635 -0.14967738 0.08230233 -0.14389212
000320 93 aa 6a bb 53 dd 2a bd bd 00 e9 3d 7b 23 25 bd
       -0.0035807237 -0.041714977 0.11377094 -0.04031704
000330 3b e4 2c 3a 65 4a 01 3e f7 56 ff bb 70 d2 b2 3d
       0.0006595288 0.12626036 -0.0077923494 0.08731544
000340 76 90 b7 bd a0 f3 d0 3d dc ee fb 3c 2f 4a 3d bd
       -0.089631006 0.10202718 0.030753545 -0.046213325
000350 11 c6 09 3e fe 5d d3 bc 2a ac 3e bd fb 44 52 bd
       0.13454463 -0.025801655 -0.046550907 -0.051335316
000360 31 08 f5 3d 04 53 03 3c bf 72 cb bc 22 b1 fe 39
       0.11964453 0.008015398 -0.024834989 0.0004857863
000370 13 53 da 3d 94 41 0f bd a9 79 75 3c 22 74 5f be
       0.106603764 -0.03497465 0.014982619 -0.21821645
000380 0c 58 9e 3c 87 e2 c2 3d 13 d1 40 3d 6a eb c0 bd
       0.019329093 0.09515863 0.04707439 -0.09419902
000390 50 be 76 bd 79 63 5c 3d d1 e6 f7 3d fc 25 d1 bc
       -0.06024009 0.053805802 0.121045716 -0.025530808
0003a0 7f e5 cb 3d 02 08 02 bc 47 ae 90 bc 27 bc 9e bc
       0.09955882 -0.0079364795 -0.017661227 -0.019376827
0003b0 0e 6b a3 bd fe 14 bf 3d 82 47 d7 bd e2 7c 98 3d
       -0.079794034 0.09330176 -0.10511686 0.074456945
0003c0 90 13 83 3d 34 46 9d 3d e6 69 4c 3d a4 6f 7f bd
       0.064002156 0.07679406 0.04990568 -0.06236233
0003d0 a4 b4 ef 3d 37 71 8f be 22 39 57 be a4 fd cd 3d
       0.11704376 -0.28016064 -0.21017888 0.10058144
0003e0 41 4e 69 3e fa 40 3f b9 13 d6 e7 3d 21 8c 20 3e
       0.22783758 -0.00018239385 0.11320128 0.15678455
0003f0 38 4b c8 ba 66 05 2b 3e c9 8d a0 bd 44 b4 ae 3d
       -0.0015281206 0.16701278 -0.07839543 0.08530477

bias f4 [128]
000000 b3 6e 72 bd 05 a0 43 be c1 4e 92 bd 15 96 99 bd
       -0.059187602 -0.19104011 -0.07143927 -0.07499329
000010 2e c6 c3 bd 83 e0 e6 bd 0c 8a e5 3c 2d fa 0b be
       -0.09559284 -0.11273291 0.028019927 -0.13669653
000020 16 24 d8 bd a3 59 d8 bc c6 f7 d0 bd ea 1b ae bd
       -0.10553758 -0.02640993 -0.10203509 -0.08501418
000030 17 54 01 be ff 60 4d be 55 34 c7 bd 3e a8 fa bb
       -0.12629734 -0.20056532 -0.097267784 -0.0076494506
000040 c1 4d 35 bd 9c 3c ba bd 42 a0 0c be eb 1e e2 bd
       -0.044263605 -0.090935916 -0.13733009 -0.110410534
000050 68 60 8d be 61 37 d0 bc c7 de 82 bd a7 5d 24 be
       -0.27612615 -0.025417032 -0.06390148 -0.1605135
000060 4c 6a aa bd f8 31 28 be 72 24 06 bd fd ec 13 be
       -0.08321056 -0.16425312 -0.0327496 -0.14445873
000070 09 31 b9 bd f9 0b b7 bc 11 6f 60 be 71 54 7e bd
       -0.09042556 -0.022344576 -0.21917368 -0.06209225
000080 41 28 0a be 60 fc 85 bb 90 36 ac bd 67 9d 69 be
       -0.13491918 -0.0040889233 -0.084088445 -0.2281395
000090 02 0f 6d be 17 a7 03 be 96 f2 cb bd 25 bf 42 be
       -0.23150256 -0.12856708 -0.09958379 -0.19018228
0000a0 1a 6d 2a be ce 38 05 be 83 fd 69 bd 6a cd bf be
       -0.16643181 -0.1300995 -0.057126533 -0.37461406
0000b0 4f 07 b3 bd 61 92 b0 bd 29 de f3 bd f0 02 e7 bd
       -0.087416284 -0.086216696 -0.11907608 -0.11279857
0000c0 f4 fd 78 bd 76 a7 e3 bd 43 4c aa ba a5 67 eb bd
       -0.060789064 -0.11115925 -0.0012992698 -0.11494378
0000d0 e5 12 f4 bd 42 13 6c bd 39 90 51 be c0 3c 12 be
       -0.11917666 -0.057635553 -0.20465173 -0.14280987
0000e0 29 a7 61 be 8e d2 21 bd 5d 04 78 bd 74 ac ca bd
       -0.22036423 -0.03950744 -0.060551036 -0.09896174
0000f0 98 89 69 be 34 b0 eb bd c7 97 0d be 37 57 13 be
       -0.22806394 -0.115082175 -0.1382743 -0.14388739
000100 61 fd 53 bc 79 37 80 bd 16 29 47 bd fc c8 33 be
       -0.012938828 -0.062605806 -0.048623167 -0.17557138
000110 b9 ff 9f bd da 5c d2 bd 60 5e 90 bd 14 c9 fb 39
       -0.07812447 -0.10271616 -0.070492506 0.00048024266
000120 7d 56 97 bd bb 6b f3 bd f2 77 0d be d7 aa 40 be
       -0.07389543 -0.11885782 -0.13815287 -0.1881517
000130 64 a0 1b be 17 47 7f bd 1f fd f3 bd e6 39 dc bd
       -0.15197903 -0.062323656 -0.119135134 -0.10753231
000140 dc d5 11 be 7b 7a 1d bd d1 77 da bd 88 aa f3 bd
       -0.14241737 -0.038446885 -0.106673844 -0.11897761
000150 a6 f9 31 be e8 00 f5 bd 81 10 07 be 68 85 46 be
       -0.1738039 -0.119630635 -0.1318989 -0.19386828
000160 2b b3 32 be bf b7 c6 be a3 55 9c bd 17 60 87 bd
       -0.1745116 -0.38812062 -0.076335214 -0.066101246
000170 9e 40 ad bc db 66 dc bd c3 33 44 bd af 1a ec bd
       -0.021148976 -0.107618056 -0.047900926 -0.11528527
000180 fb 00 fb bc 80 a4 70 bd 73 66 b8 bd ee af ad bd
       -0.030640116 -0.05875063 -0.09003916 -0.084808215
000190 08 25 33 be 95 23 5f bc 20 83 0e be 84 7b 49 be
       -0.17494595 -0.013619323 -0.13917208 -0.19676024
0001a0 49 63 cc be 84 62 40 be 23 ea 17 be 5a b8 fc bd
       -0.399195 -0.1878758 -0.1483541 -0.1233985
0001b0 48 60 7a bd 39 1d a9 bd 54 45 8d be 00 67 03 be
       -0.061126977 -0.08257527 -0.27591956 -0.1283226
0001c0 3e 31 a0 bd 99 cc b8 bd 85 81 25 bd d4 85 4d bd
       -0.07821892 -0.09023399 -0.040406723 -0.050176457
0001d0 74 f9 a8 bd c9 90 a3 bd 0d c4 c0 bd f8 ed 78 bd
       -0.082507044 -0.079866 -0.09412394 -0.06077382
0001e0 52 48 9d bd a9 40 d8 bd 3f 81 d0 bd 37 4f cf bd
       -0.0767981 -0.10559208 -0.10180902 -0.10122531
0001f0 ee 05 cb bd 36 a5 fd bd 96 e7 28 bd 45 89 ef bd
       -0.099132404 -0.12385027 -0.041236483 -0.11696104

weight f4 [21, 128]
000000 0a 1b a4 bd 96 26 70 3c 67 cb 00 bd 07 64 6b bc
       -0.0801297 0.014657637 -0.03144398 -0.01436711
000010 a4 2d 1e 3d 6a 99 f9 3c 22 f9 61 bc b6 94 58 bd
       0.038617745 0.030468661 -0.013792308 -0.052876197
000020 62 ff b0 b8 2e 3d 75 3d 3b 65 74 bc da 4c 9b bc
       -8.439903e-05 0.0598728 -0.014916713 -0.018957544
000030 57 02 06 3d 79 a0 2d bd 22 e1 29 bd cc 5b df b6
       0.032717075 -0.042389367 -0.04147447 -6.6566045e-06
000040 e0 7e f8 bd 0f d4 4e bc d4 a8 27 bd 51 63 73 3c
       -0.121335745 -0.012623801 -0.04093249 0.014855222
000050 d6 18 ad bc 1d 08 8c 3c 46 68 08 3e 05 f8 15 bd
       -0.021130007 0.017093712 0.13321027 -0.036613483
000060 66 e9 a6 3c a2 32 90 bd 51 10 c0 ba 82 df 6a 3d
       0.020374965 -0.070409074 -0.00146533 0.05734206
000070 d0 3a 9b 3c 1d ca 98 3c 6c 9a b3 bd 54 70 b3 bd
       0.018948942 0.018651063 -0.08769688 -0.08761659
000080 c0 31 ed bc 5b 93 03 bd 14 9e c3 bb d8 fa 3e be
       -0.028954387 -0.03212295 -0.005969772 -0.18650377
000090 4c 5b e6 bc 89 b3 90 3c 3b 01 6c 3c 88 96 bd 3c
       -0.028119706 0.017663734 0.01440459 0.023143068
0000a0 83 6b 2b 3d 4b 03 a5 bd 1c 8b 95 3d 7c bb c9 3d
       0.041850578 -0.08057269 0.07301924 0.09850213
0000b0 ee 4e 8f bd 8a 26 ae 3c c3 e1 89 3c 37 4f 49 bc
       -0.069974765 0.021258611 0.016831284 -0.012286953
0000c0 f5 28 41 3c 00 39 39 bc e5 a6 a2 bc 7d 17 28 3e
       0.01178955 -0.011305094 -0.019854972 0.1641521
0000d0 cd 0e 6d 3c e0 d2 b3 bd ec 30 2e 3d 14 b4 98 3d
       0.014468861 -0.087804556 0.042527124 0.07456222
0000e0 e0 f1 5e bd 51 23 d7 3d 3c f3 59 3d 92 46 66 3b
       -0.05442989 0.10504783 0.053210482 0.0035137278
0000f0 57 e7 50 3d 17 8e ad b9 26 6e ba 3b 4f 88 84 3b
       0.051001873 -0.00033102997 0.0056894002 0.0040445696
000100 2e 11 8f bc 50 d6 08 bd ed db 3a 3b 05 51 a9 3b
       -0.017464247 -0.03340751 0.0028512434 0.005167129
000110 b7 90 8b bc 68 6a 8e bd 33 70 81 bd cb 6f 30 3c
       -0.017036779 -0.06953889 -0.063202284 0.010768841
000120 ff 01 d2 3d 0f b9 c6 bc 05 33 22 bd 70 b2 13 3d
       0.10254287 -0.024258165 -0.039599437 0.036058843
000130 db 6f 9c 3d e4 1c 1b 3b 3d 64 fa 3d 65 0c 3b 3d
       0.07638522 0.0023668343 0.1222615 0.045666117
000140 f8 66 0c bc c4 83 da bd 7f 4c 6e bd a5 c6 ff 3b
       -0.008569472 -0.106696635 -0.05817842 0.0078056627
000150 a5 ea c7 bc 75 bd 07 3e ad c3 c8 3c fa 65 87 bd
       -0.02440388 0.13255866 0.024507368 -0.06611247
000160 33 98 e0 3d b3 3e a4 bb a5 dd 15 3d 70 14 f3 bc
       0.1096653 -0.005012357 0.03658833 -0.029672831
000170 76 00 76 bc 3e 93 08 3d cd c4 61 bd 5b 8a bd bd
       -0.015014758 0.033343546 -0.055119324 -0.09254905
000180 98 20 bf 3b 64 ee d4 ba 18 5c e7 ba d0 3b 4c 3c
       0.005832743 -0.0016245362 -0.0017651347 0.012465432
000190 ac 16 18 bd 7c b8 e9 3d d5 7b 2a bd 3e e0 f0 3c
       -0.037130997 0.11412141 -0.041622 0.029403802
0001a0 f7 7d 1b bc 9a d6 9b 3c 10 72 c1 3c d8 da 24 3b
       -0.009490482 0.019023228 0.02361396 0.0025154855
0001b0 04 3a 26 bd 1d f0 68 3c 1d a5 8e bd 6e ac d1 bd
       -0.04058267 0.014217404 -0.069650866 -0.102379665
0001c0 8d 79 ce 3d da e3 7a 3b 84 fd 99 bd 3b 5d 85 3b
       0.10081778 0.0038282783 -0.075190574 0.004069952
0001d0 89 cc 98 bd e7 6e f9 bd 08 94 94 3d ff d5 ec 3c
       -0.07460887 -0.12179356 0.07254797 0.028910635
0001e0 b5 b7 d4 bd 86 f2 9e 3d a0 b5 ca bc f1 59 74 3d
       -0.10386602 0.077611014 -0.024744809 0.059656087
0001f0 58 e3 8e 3c 8c af bd bc 6a 8e 1c 3d f6 16 9c 3d
       0.01744239 -0.023154996 0.038221754 0.07621567
000200 37 4c 27 3d 4d 81 0d 3e c9 eb e7 bc 93 7e 95 bd
       0.04084417 0.13818856 -0.028310673 -0.07299533
000210 27 80 a6 bd d5 64 d1 bc 75 5c fd 3c a1 56 ac bc
       -0.08129912 -0.025560776 0.030927876 -0.021037402
000220 2d da f9 bd e6 d7 03 3c 8f 40 7e 3c 9d 1c 0c bd
       -0.12199817 0.00804708 0.015518322 -0.034206975
000230 b7 69 45 3d b4 da 26 bd f0 e8 e8 3c 09 13 14 3d
       0.04819652 -0.040735915 0.028431386 0.036150966
000240 1f 13 83 bd cf ec 9d bd f8 a3 d5 bd f1 74 dc bc
       -0.064001314 -0.07711183 -0.10431665 -0.02691123
000250 4d 96 e1 3d eb d6 c8 3a af 05 17 bd 37 b5 a6 3d
       0.11014996 0.001532284 -0.036870655 0.08140033
000260 da 72 20 3d c2 0e d0 3d c1 fc 80 bb eb a8 b5 3d
       0.03917203 0.10159065 -0.0039363806 0.08870109
000270 9f 1b 37 3d e1 24 ca 3c fe db c4 3d 7c 22 23 3d
       0.044704076 0.024675788 0.09612273 0.03982781
000280 3e b4 8c bd 41 77 f0 3d de 93 02 3c 51 50 93 3d
       -0.06870316 0.11741496 0.007969825 0.071930535
000290 e1 73 e8 3d 80 d9 b2 3b d5 2d 7c bc 15 6a 9f 3d
       0.11350227 0.005458057 -0.015391787 0.077839054
0002a0 81 d4 03 3d 3e 8b 74 bd 2b a8 00 3d c0 81 70 3d
       0.03218508 -0.059703104 0.031410377 0.05871749
0002b0 8f c6 7a bd 67 49 0e bd cd b2 73 bd ff 12 8e 3c
       -0.061224516 -0.03473797 -0.05949669 0.017343042
0002c0 ea 27 c1 3c a1 2d 74 bc 27 b3 80 3b 16 81 af 3c
       0.023578603 -0.014903457 0.0039276066 0.021423858
0002d0 99 8f 0d bd 2e 10 81 3c 04 d6 32 be 12 3f 8e bc
       -0.034560774 0.015754785 -0.17464453 -0.017364059
0002e0 1c 76 81 3c b1 1d 6b 3b 6c 7e a8 3c 2f 8f 0c bd
       0.01580339 0.0035875852 0.020568095 -0.034316238
0002f0 c9 9e b9 3c 32 d6 6d 3d a4 aa 6e 3c 5d 0d 69 3d
       0.022658722 0.0580656 0.014567051 0.05689751
000300 3d fa 7d bd b8 19 13 bd 40 35 84 3d ea ed 6b bd
       -0.062006224 -0.0359132 0.06455469 -0.05759994
000310 14 f3 28 bd 2f a8 31 3c fd c6 51 3d c3 9a e2 bb
       -0.041247442 0.010843321 0.05121516 -0.0069154217
000320 88 22 11 bd 83 90 b4 3d 95 18 8c bd 27 13 15 3d
       -0.035433322 0.08816626 -0.06840626 0.03639522
000330 97 34 ae bd 1f 65 db 3b 6d 78 2f be 92 3d 8c bd
       -0.085061245 0.006695404 -0.17135783 -0.06847681
000340 ef 57 c8 bb b3 f3 07 3e 42 e8 65 bd 67 a9 b0 3d
       -0.006113998 0.13276558 -0.0561297 0.08626061
000350 35 b2 65 bd f0 c4 00 be 7a c6 2b bb 18 61 69 3a
       -0.056078155 -0.12575126 -0.002621083 0.0008902713
000360 87 4f 68 bd 29 e8 8b 3d e1 b9 6f bd 7b 76 4b bd
       -0.05671647 0.068313904 -0.058526877 -0.04967354
000370 47 1c 9b bd 2e fe 3a bd f4 70 94 3d 71 fb ac bc
       -0.07573753 -0.04565256 0.072481066 -0.02111599
000380 a6 d1 80 3c 74 0a 4c 3c ff 98 c2 bc 7d 3d 14 bc
       0.015724968 0.012453664 -0.023754595 -0.009047863
000390 8c f9 35 3d 26 d8 b6 3c ce 7a 85 bd b5 39 3c bc
       0.04442744 0.022319864 -0.06517564 -0.011488368
0003a0 47 52 9b 3d e2 97 0c bd ec 36 d9 bd 59 a7 d3 bc
       0.075840525 -0.034324534 -0.10606179 -0.025836634
0003b0 9a 7f d9 3c ac a7 e8 3c 6e 4a dc bd 1e f7 aa 3b
       0.026550103 0.028400265 -0.10756384 0.005217447
0003c0 9d 11 2d bb ba a6 19 bc d9 b8 a2 bc cd 47 7b bc
       -0.0026408203 -0.00937813 -0.019863533 -0.015336943
0003d0 ce ae 9b 3b f6 fb 6d 3d ee f4 58 bd 44 8e 3b bd
       0.004751063 0.058101617 -0.05296796 -0.045789972
0003e0 2a 1f d5 3d 80 42 3e bd 87 95 05 3d 4a a8 11 bd
       0.10406335 -0.046450138 0.032613304 -0.035560884
0003f0 85 59 bb 3c fb 28 8b 3d b7 f2 b8 3d ef 57 97 3d
       0.022869835 0.06794926 0.09030669 0.07389819

bias f4 [21]
000000 86 a0 bb 3d af 75 9f 3c a9 31 a0 3c 32 bb 8b 3d
       0.09161477 0.019465296 0.01955493 0.06822814
000010 2a cb cf bd cb c8 ed bc 77 9b 6f 3c bb cf 8d bd
       -0.10146172 -0.02902641 0.014624468 -0.06924387
000020 43 03 c4 3d eb 59 d3 3c a0 30 3d 3b 5a 15 a4 bd
       0.095709346 0.025799712 0.0028868094 -0.08011885
000030 79 9f c5 bc 65 4d 42 3d ad 73 68 bd a4 f7 4d 3e
       -0.024123894 0.04743709 -0.056750942 0.20113999
000040 a3 eb 73 3e 5a ed 82 bd f7 91 d5 bb 01 fb 47 bd
       0.23820357 -0.063929275 -0.0065176445 -0.04882336
000050 31 39 9e 3d
       0.07725752
